('resnext model: ', ResNeXt(
  (conv1): Conv2d(3, 64, kernel_size=(7, 7), stride=(2, 2), padding=(3, 3), bias=False)
  (bn1): BatchNorm2d(64, eps=1e-05, momentum=0.1, affine=True)
  (relu): ReLU(inplace)
  (maxpool): MaxPool2d(kernel_size=(3, 3), stride=(2, 2), padding=(1, 1), dilation=(1, 1), ceil_mode=False)
  (stage_1): Sequential(
    (0): ResNeXtBottleneck(
      (conv_reduce): Conv2d(64, 128, kernel_size=(1, 1), stride=(1, 1), bias=False)
      (bn_reduce): BatchNorm2d(128, eps=1e-05, momentum=0.1, affine=True)
      (conv_conv): Conv2d(128, 128, kernel_size=(3, 3), stride=(1, 1), padding=(1, 1), groups=32, bias=False)
      (bn): BatchNorm2d(128, eps=1e-05, momentum=0.1, affine=True)
      (conv_expand): Conv2d(128, 256, kernel_size=(1, 1), stride=(1, 1), bias=False)
      (bn_expand): BatchNorm2d(256, eps=1e-05, momentum=0.1, affine=True)
      (downsample): Sequential(
        (0): Conv2d(64, 256, kernel_size=(1, 1), stride=(1, 1), bias=False)
        (1): BatchNorm2d(256, eps=1e-05, momentum=0.1, affine=True)
      )
    )
    (1): ResNeXtBottleneck(
      (conv_reduce): Conv2d(256, 128, kernel_size=(1, 1), stride=(1, 1), bias=False)
      (bn_reduce): BatchNorm2d(128, eps=1e-05, momentum=0.1, affine=True)
      (conv_conv): Conv2d(128, 128, kernel_size=(3, 3), stride=(1, 1), padding=(1, 1), groups=32, bias=False)
      (bn): BatchNorm2d(128, eps=1e-05, momentum=0.1, affine=True)
      (conv_expand): Conv2d(128, 256, kernel_size=(1, 1), stride=(1, 1), bias=False)
      (bn_expand): BatchNorm2d(256, eps=1e-05, momentum=0.1, affine=True)
    )
    (2): ResNeXtBottleneck(
      (conv_reduce): Conv2d(256, 128, kernel_size=(1, 1), stride=(1, 1), bias=False)
      (bn_reduce): BatchNorm2d(128, eps=1e-05, momentum=0.1, affine=True)
      (conv_conv): Conv2d(128, 128, kernel_size=(3, 3), stride=(1, 1), padding=(1, 1), groups=32, bias=False)
      (bn): BatchNorm2d(128, eps=1e-05, momentum=0.1, affine=True)
      (conv_expand): Conv2d(128, 256, kernel_size=(1, 1), stride=(1, 1), bias=False)
      (bn_expand): BatchNorm2d(256, eps=1e-05, momentum=0.1, affine=True)
    )
  )
  (stage_2): Sequential(
    (0): ResNeXtBottleneck(
      (conv_reduce): Conv2d(256, 256, kernel_size=(1, 1), stride=(1, 1), bias=False)
      (bn_reduce): BatchNorm2d(256, eps=1e-05, momentum=0.1, affine=True)
      (conv_conv): Conv2d(256, 256, kernel_size=(3, 3), stride=(2, 2), padding=(1, 1), groups=32, bias=False)
      (bn): BatchNorm2d(256, eps=1e-05, momentum=0.1, affine=True)
      (conv_expand): Conv2d(256, 512, kernel_size=(1, 1), stride=(1, 1), bias=False)
      (bn_expand): BatchNorm2d(512, eps=1e-05, momentum=0.1, affine=True)
      (downsample): Sequential(
        (0): Conv2d(256, 512, kernel_size=(1, 1), stride=(2, 2), bias=False)
        (1): BatchNorm2d(512, eps=1e-05, momentum=0.1, affine=True)
      )
    )
    (1): ResNeXtBottleneck(
      (conv_reduce): Conv2d(512, 256, kernel_size=(1, 1), stride=(1, 1), bias=False)
      (bn_reduce): BatchNorm2d(256, eps=1e-05, momentum=0.1, affine=True)
      (conv_conv): Conv2d(256, 256, kernel_size=(3, 3), stride=(1, 1), padding=(1, 1), groups=32, bias=False)
      (bn): BatchNorm2d(256, eps=1e-05, momentum=0.1, affine=True)
      (conv_expand): Conv2d(256, 512, kernel_size=(1, 1), stride=(1, 1), bias=False)
      (bn_expand): BatchNorm2d(512, eps=1e-05, momentum=0.1, affine=True)
    )
    (2): ResNeXtBottleneck(
      (conv_reduce): Conv2d(512, 256, kernel_size=(1, 1), stride=(1, 1), bias=False)
      (bn_reduce): BatchNorm2d(256, eps=1e-05, momentum=0.1, affine=True)
      (conv_conv): Conv2d(256, 256, kernel_size=(3, 3), stride=(1, 1), padding=(1, 1), groups=32, bias=False)
      (bn): BatchNorm2d(256, eps=1e-05, momentum=0.1, affine=True)
      (conv_expand): Conv2d(256, 512, kernel_size=(1, 1), stride=(1, 1), bias=False)
      (bn_expand): BatchNorm2d(512, eps=1e-05, momentum=0.1, affine=True)
    )
    (3): ResNeXtBottleneck(
      (conv_reduce): Conv2d(512, 256, kernel_size=(1, 1), stride=(1, 1), bias=False)
      (bn_reduce): BatchNorm2d(256, eps=1e-05, momentum=0.1, affine=True)
      (conv_conv): Conv2d(256, 256, kernel_size=(3, 3), stride=(1, 1), padding=(1, 1), groups=32, bias=False)
      (bn): BatchNorm2d(256, eps=1e-05, momentum=0.1, affine=True)
      (conv_expand): Conv2d(256, 512, kernel_size=(1, 1), stride=(1, 1), bias=False)
      (bn_expand): BatchNorm2d(512, eps=1e-05, momentum=0.1, affine=True)
    )
  )
  (stage_3): Sequential(
    (0): ResNeXtBottleneck(
      (conv_reduce): Conv2d(512, 512, kernel_size=(1, 1), stride=(1, 1), bias=False)
      (bn_reduce): BatchNorm2d(512, eps=1e-05, momentum=0.1, affine=True)
      (conv_conv): Conv2d(512, 512, kernel_size=(3, 3), stride=(2, 2), padding=(1, 1), groups=32, bias=False)
      (bn): BatchNorm2d(512, eps=1e-05, momentum=0.1, affine=True)
      (conv_expand): Conv2d(512, 1024, kernel_size=(1, 1), stride=(1, 1), bias=False)
      (bn_expand): BatchNorm2d(1024, eps=1e-05, momentum=0.1, affine=True)
      (downsample): Sequential(
        (0): Conv2d(512, 1024, kernel_size=(1, 1), stride=(2, 2), bias=False)
        (1): BatchNorm2d(1024, eps=1e-05, momentum=0.1, affine=True)
      )
    )
    (1): ResNeXtBottleneck(
      (conv_reduce): Conv2d(1024, 512, kernel_size=(1, 1), stride=(1, 1), bias=False)
      (bn_reduce): BatchNorm2d(512, eps=1e-05, momentum=0.1, affine=True)
      (conv_conv): Conv2d(512, 512, kernel_size=(3, 3), stride=(1, 1), padding=(1, 1), groups=32, bias=False)
      (bn): BatchNorm2d(512, eps=1e-05, momentum=0.1, affine=True)
      (conv_expand): Conv2d(512, 1024, kernel_size=(1, 1), stride=(1, 1), bias=False)
      (bn_expand): BatchNorm2d(1024, eps=1e-05, momentum=0.1, affine=True)
    )
    (2): ResNeXtBottleneck(
      (conv_reduce): Conv2d(1024, 512, kernel_size=(1, 1), stride=(1, 1), bias=False)
      (bn_reduce): BatchNorm2d(512, eps=1e-05, momentum=0.1, affine=True)
      (conv_conv): Conv2d(512, 512, kernel_size=(3, 3), stride=(1, 1), padding=(1, 1), groups=32, bias=False)
      (bn): BatchNorm2d(512, eps=1e-05, momentum=0.1, affine=True)
      (conv_expand): Conv2d(512, 1024, kernel_size=(1, 1), stride=(1, 1), bias=False)
      (bn_expand): BatchNorm2d(1024, eps=1e-05, momentum=0.1, affine=True)
    )
    (3): ResNeXtBottleneck(
      (conv_reduce): Conv2d(1024, 512, kernel_size=(1, 1), stride=(1, 1), bias=False)
      (bn_reduce): BatchNorm2d(512, eps=1e-05, momentum=0.1, affine=True)
      (conv_conv): Conv2d(512, 512, kernel_size=(3, 3), stride=(1, 1), padding=(1, 1), groups=32, bias=False)
      (bn): BatchNorm2d(512, eps=1e-05, momentum=0.1, affine=True)
      (conv_expand): Conv2d(512, 1024, kernel_size=(1, 1), stride=(1, 1), bias=False)
      (bn_expand): BatchNorm2d(1024, eps=1e-05, momentum=0.1, affine=True)
    )
    (4): ResNeXtBottleneck(
      (conv_reduce): Conv2d(1024, 512, kernel_size=(1, 1), stride=(1, 1), bias=False)
      (bn_reduce): BatchNorm2d(512, eps=1e-05, momentum=0.1, affine=True)
      (conv_conv): Conv2d(512, 512, kernel_size=(3, 3), stride=(1, 1), padding=(1, 1), groups=32, bias=False)
      (bn): BatchNorm2d(512, eps=1e-05, momentum=0.1, affine=True)
      (conv_expand): Conv2d(512, 1024, kernel_size=(1, 1), stride=(1, 1), bias=False)
      (bn_expand): BatchNorm2d(1024, eps=1e-05, momentum=0.1, affine=True)
    )
    (5): ResNeXtBottleneck(
      (conv_reduce): Conv2d(1024, 512, kernel_size=(1, 1), stride=(1, 1), bias=False)
      (bn_reduce): BatchNorm2d(512, eps=1e-05, momentum=0.1, affine=True)
      (conv_conv): Conv2d(512, 512, kernel_size=(3, 3), stride=(1, 1), padding=(1, 1), groups=32, bias=False)
      (bn): BatchNorm2d(512, eps=1e-05, momentum=0.1, affine=True)
      (conv_expand): Conv2d(512, 1024, kernel_size=(1, 1), stride=(1, 1), bias=False)
      (bn_expand): BatchNorm2d(1024, eps=1e-05, momentum=0.1, affine=True)
    )
  )
  (stage_4): Sequential(
    (0): ResNeXtBottleneck(
      (conv_reduce): Conv2d(1024, 1024, kernel_size=(1, 1), stride=(1, 1), bias=False)
      (bn_reduce): BatchNorm2d(1024, eps=1e-05, momentum=0.1, affine=True)
      (conv_conv): Conv2d(1024, 1024, kernel_size=(3, 3), stride=(2, 2), padding=(1, 1), groups=32, bias=False)
      (bn): BatchNorm2d(1024, eps=1e-05, momentum=0.1, affine=True)
      (conv_expand): Conv2d(1024, 2048, kernel_size=(1, 1), stride=(1, 1), bias=False)
      (bn_expand): BatchNorm2d(2048, eps=1e-05, momentum=0.1, affine=True)
      (downsample): Sequential(
        (0): Conv2d(1024, 2048, kernel_size=(1, 1), stride=(2, 2), bias=False)
        (1): BatchNorm2d(2048, eps=1e-05, momentum=0.1, affine=True)
      )
    )
    (1): ResNeXtBottleneck(
      (conv_reduce): Conv2d(2048, 1024, kernel_size=(1, 1), stride=(1, 1), bias=False)
      (bn_reduce): BatchNorm2d(1024, eps=1e-05, momentum=0.1, affine=True)
      (conv_conv): Conv2d(1024, 1024, kernel_size=(3, 3), stride=(1, 1), padding=(1, 1), groups=32, bias=False)
      (bn): BatchNorm2d(1024, eps=1e-05, momentum=0.1, affine=True)
      (conv_expand): Conv2d(1024, 2048, kernel_size=(1, 1), stride=(1, 1), bias=False)
      (bn_expand): BatchNorm2d(2048, eps=1e-05, momentum=0.1, affine=True)
    )
    (2): ResNeXtBottleneck(
      (conv_reduce): Conv2d(2048, 1024, kernel_size=(1, 1), stride=(1, 1), bias=False)
      (bn_reduce): BatchNorm2d(1024, eps=1e-05, momentum=0.1, affine=True)
      (conv_conv): Conv2d(1024, 1024, kernel_size=(3, 3), stride=(1, 1), padding=(1, 1), groups=32, bias=False)
      (bn): BatchNorm2d(1024, eps=1e-05, momentum=0.1, affine=True)
      (conv_expand): Conv2d(1024, 2048, kernel_size=(1, 1), stride=(1, 1), bias=False)
      (bn_expand): BatchNorm2d(2048, eps=1e-05, momentum=0.1, affine=True)
    )
  )
))
('checkpoint: ', OrderedDict([(u'0.weight', 
(0 ,0 ,.,.) = 
 -8.8841e-03  1.6669e-02  6.6166e-03  ...   6.2126e-02  3.2102e-02  1.7589e-02
  1.5461e-02  2.3896e-02  3.3017e-02  ...   9.5026e-02  4.8885e-02  3.0211e-02
  2.6314e-02  4.8612e-02  5.9533e-02  ...   5.5410e-02  3.1978e-02  2.9514e-03
                 ...                   ⋱                   ...                
…
